major_ui/assets/NULB.tflite (tflite, 148768 bytes, 8 tensors)

arith.constant4 f4 [1, 25]
0	0x3dac520b	0.08414086
1	0x3e86e210	0.26344347
2	0x3e8f25ad	0.27958432
3	0xbec2654e	-0.37967914
4	0xbee8e8e0	-0.4549017
5	0x3d8374d5	0.06418768
6	0x3e9fc8be	0.31207842
7	0x3e0dae25	0.13835962
8	0x3eebacae	0.46030182
9	0x3df82ceb	0.121179424
10	0x3dc783c6	0.09741931
11	0x3ee4b4bf	0.44669148
12	0xbcfe1434	-0.031015493
13	0xbeb67e80	-0.35643387
14	0xbefe5b9b	-0.49679264
15	0xbe6cd39e	-0.231276
16	0xbe82874b	-0.25493845
17	0x3e8366a1	0.25664237
18	0x3ecc011f	0.39844605
19	0xbe808d7e	-0.2510795
20	0x3eb2d06b	0.34924635
21	0x3eb56bd5	0.35433832
22	0xbe1cf090	-0.15326142
23	0x3e6ac23b	0.22925656
24	0xbe040fee	-0.12896702

arith.constant5 f4 [25, 50]
0	0xbda88cc6	-0.082299754
1	0x3e6b22f7	0.22962557
2	0x3e4c3cdf	0.19945095
3	0xbe060d1a	-0.13090935
4	0xbe1d93e8	-0.15388453
5	0x3d9173d1	0.07102168
6	0x3e893d2a	0.26804477
7	0x3e23fa4a	0.16013446
8	0x3d40b9b8	0.047052115
9	0xbdf54316	-0.11975686
10	0xbe668dbd	-0.22515006
11	0x3e449f87	0.1920148
12	0x3c0326af	0.008004828
13	0x3e9134c7	0.28360578
14	0xbe89804c	-0.26855695
15	0x3e0f8e05	0.1401902
16	0xbe1eaf78	-0.15496624
17	0xbdad24c5	-0.08454279
18	0xbe6aa923	-0.22916083
19	0x3e3da180	0.18518639
20	0xbe07195d	-0.13193269
21	0x3e9f9743	0.3117009
22	0x3d4c99c4	0.04995133
23	0x3e99e2b6	0.3005578
24	0xbe3f6045	-0.18689068
25	0xbc9297fb	-0.017894736
26	0xbe812b68	-0.2522843
27	0xbe5df8bb	-0.21676914
28	0xbd58d77e	-0.052939884
29	0xbe10a151	-0.14124037
30	0x3dd1d633	0.102459334
31	0xbe5d605d	-0.21618791
32	0xbd88755d	-0.0666301
33	0x3e1335e4	0.14376026
34	0x3e65ff89	0.2246076
35	0xbdcf9b59	-0.10137052
36	0xbe86db14	-0.26339018
37	0xbd8f7c53	-0.07006135
38	0xbe9293ec	-0.2862848
39	0x3e4e0cc4	0.20122057
40	0xbdaf7367	-0.08566933
41	0x3d745e54	0.05966027
42	0x3e836c23	0.2566844
43	0x3e23d835	0.16000445
44	0x3e037881	0.12838937
45	0x3e9db179	0.30799463
46	0x3de7f87b	0.11326691
47	0x3cbfc28a	0.023408193
48	0xbdd9522c	-0.10611376
49	0x3d50badb	0.05095945
50	0x3dc74632	0.097301856
51	0xbe73fbdf	-0.2382655
52	0x3e85a046	0.2609884
53	0x3e865479	0.26236323
54	0x3df11e6c	0.11773381
55	0x3cbb5b38	0.022870645
56	0x3e57f27d	0.21088596
57	0xbdd2aff6	-0.10287468
58	0xbe2f050f	-0.17091773
59	0x3e50c194	0.20386344
60	0x3e73ae73	0.23797016
61	0xbd1047b3	-0.035224628
62	0xbd1a00de	-0.037598483
63	0xbe6525ba	-0.22377673
64	0xbdc45c50	-0.0958792
65	0x3e33fd23	0.17577033
66	0x3d3bd2bf	0.04585528
67	0xbe229da0	-0.15880442
68	0x3dd6e4fd	0.10492895
69	0x3dec1b76	0.11528675
70	0xbe08aa8e	-0.13346311
71	0x3e170d89	0.14751257
72	0x3dd2cc92	0.10292925
73	0x3d91afe2	0.07113625
74	0x3e7341fb	0.23755638
75	0xbe65039e	-0.22364661
76	0x3d01e967	0.03171673
77	0x3e0cae30	0.13738322
78	0x3dc09207	0.094028525
79	0x3e0c31b4	0.13690835
80	0xbe86c58f	-0.263226
81	0xbc883e8b	-0.016631385
82	0x3d31364f	0.043264683
83	0x3e71a934	0.23599702
84	0xbb4b052a	-0.003097842
85	0xbe301dfe	-0.17198941
86	0xbe016ef6	-0.12639984
87	0xbd313034	-0.04325886
88	0xbe58798a	-0.21140113
89	0xbdb127aa	-0.086501434
90	0xbe38d5b2	-0.18050268
91	0xbe5ac71d	-0.21365018
92	0x3cf63481	0.030054333
93	0x3dfe1ec5	0.124082126
94	0xbd40230f	-0.046908434
95	0x3e9b0031	0.30273584
96	0xbdd1f30c	-0.10251436
97	0xbd485b1f	-0.048915025
98	0x3e8bdb2c	0.27315652
99	0x3e2dbc89	0.16966452
100	0x3e687921	0.22702457
101	0x3da07d04	0.07836345
102	0x3e3a9f65	0.18224867
103	0xbe21ce2e	-0.15801308
104	0x3d227e2a	0.0396711
105	0xbd5be9cf	-0.053689774
106	0x3e174722	0.14773229
107	0xbdd6e136	-0.10492174
108	0x3e3a295b	0.18179838
109	0x3da6eb3e	0.08150338
110	0x3e7a2fcd	0.24432297
111	0xbde0fc71	-0.109856494
112	0xbd5fd085	-0.05464222
113	0x3c856d17	0.01628737
114	0xbe46780f	-0.19381736
115	0xbdebe0c0	-0.11517477
116	0x3e5b4ba3	0.21415572
117	0xbdbc8ebb	-0.09206911
118	0x3d9f14be	0.07767628
119	0xbe76ec1b	-0.24113505
120	0xbd10c761	-0.035346393
121	0x3d88e692	0.06684603
122	0xbcf6c329	-0.030122356
123	0xbe221d44	-0.15831476
124	0xbd9e6c2e	-0.077354774
125	0xbe4d612f	-0.20056604
126	0x3d83aaa5	0.06429032
127	0xbe6acddf	-0.22930096
128	0xbe2c2129	-0.16809525
129	0x3e2f2101	0.17102434
130	0x3de92bea	0.11385329
131	0xbe89b89c	-0.26898658
132	0xbb188e0d	-0.0023278028
133	0xbe1cd3fc	-0.1531524
134	0x3e15b4d7	0.14619766
135	0xbe166ead	-0.14690657
136	0xbe5f201e	-0.21789595
137	0xbdb7211a	-0.089418605
138	0x3e71d049	0.2361461
139	0x3d8d46e2	0.068982854
140	0x3d7247f4	0.05915065
141	0x3d9930ad	0.07479987
142	0xbe7663bf	-0.24061488
143	0xbe480499	-0.19533004
144	0x3d028f2c	0.03187482
145	0xbe3b95a7	-0.18318807
146	0xbd3d82f6	-0.046267472
147	0xbd9b3249	-0.075779505
148	0xbe0d4736	-0.13796696
149	0x3e2c9d54	0.16856891
150	0xbaf1928d	-0.0018430516
151	0xbe14f8bc	-0.1454801
152	0xbd9f5c81	-0.077813156
153	0x3d70e1ef	0.058809217
154	0xbe4a4a66	-0.19754943
155	0xbe364dc5	-0.17803104
156	0x3e7d8718	0.24758565
157	0xbe685a2a	-0.22690645
158	0xbd44b852	-0.048027344
159	0x3e1c7d8b	0.15282266
160	0x3e83f6df	0.25774285
161	0xbe51b05c	-0.20477432
162	0x3def585a	0.116867736
163	0xbcebafee	-0.028770413
164	0x3d3aa26d	0.045565058
165	0xbe99a147	-0.30005857
166	0xbc321378	-0.0108688995
167	0x3e208c37	0.15678488
168	0x3d2606a1	0.040533666
169	0x3e222f4d	0.15838356
170	0x3e1d612f	0.15369104
171	0xbda0d98b	-0.07853993
172	0xbd4c034f	-0.049807843
173	0xbd848f59	-0.06472654
174	0xbd9ead60	-0.077479124
175	0xbe4e67f1	-0.20156838
176	0x3cd063e4	0.025438257
177	0xbb84d88d	-0.004054135
178	0xbdd99964	-0.1062496
179	0x3dd0f7f3	0.102035426
180	0x3caf6f3d	0.021415347
181	0x3dcd1efc	0.100156754
182	0x3e91e6b8	0.28496337
183	0xbe5d3a60	-0.216043
184	0x3e243f1e	0.16039702
185	0x3d94712d	0.07248149
186	0x3dfa1b99	0.12212295
187	0x3e4b3d32	0.19847563
188	0x3c269901	0.010168315
189	0xbe39da1f	-0.18149613
190	0x3e0df88f	0.13864349
191	0x3e706a42	0.23478034
192	0xbe5c5f60	-0.21520758
193	0xbe6eb9ff	-0.2331314
194	0x3c903db9	0.017607557
195	0x3dc8f038	0.09811443
196	0xbe538bad	-0.20658751
197	0xbd0dc404	-0.034610763
198	0xbe244b2b	-0.160443
199	0xbd97e21c	-0.07416174
200	0x3e2e82ec	0.1704213
201	0x3e028830	0.12747264
202	0x3e88a47b	0.2668799
203	0x3aacc314	0.0013180696
204	0xbe36c112	-0.17847088
205	0x3df521ae	0.119693145
206	0xbd9dbf53	-0.07702508
207	0x3dbad955	0.09123484
208	0xbe713447	-0.23555098
209	0x3e147a91	0.1449988
210	0x3d6da969	0.05802289
211	0xbd36ecdf	-0.04465949
212	0x3c80a3a8	0.015703037
213	0x3c82ba52	0.015957985
214	0xbd261a44	-0.040552393
215	0x3e33e956	0.1756948
216	0x3e2d39d8	0.16916597
217	0xbe1d69ef	-0.15372442
218	0x3e7ddd75	0.2479151
219	0xbd20d5a8	-0.03926626
220	0x3e69fff9	0.22851552
221	0x3ce94037	0.028473003
222	0x3ca707be	0.020389434
223	0xbd992d20	-0.0747931
224	0xbe69d76c	-0.22836083
225	0x3ddcb472	0.10776605
226	0xbdbb7c3d	-0.09154556
227	0x3e1b4dc3	0.15166382
228	0x3e1a31be	0.15058038
229	0xbe56d156	-0.20978293
230	0xbdede687	-0.11616235
231	0x3d9e94ab	0.077432
232	0x3dce9f72	0.100890055
233	0x3e8403d1	0.25784162
234	0x3d044b18	0.032298177
235	0xbcf2fb61	-0.029660882
236	0xbd2bf2ff	-0.041979786
237	0xbe8c9f83	-0.27465448
238	0x3cf355af	0.029703943
239	0x3d30d4c4	0.04317166
240	0xbe71eec4	-0.23626238
241	0xbe6de9ac	-0.2323367
242	0x3e29c6a6	0.16579685
243	0x3e0f9264	0.14020687
244	0x3e85266d	0.2600588
245	0x3de48d44	0.11159757
246	0xbdf3a1ed	-0.11896119
247	0x3db99d6d	0.0906323
248	0x3e2c05bd	0.16799064
249	0x3e8380a3	0.2568408
250	0x3ddc9771	0.10771073
251	0xbcf6750e	-0.030085113
252	0x3e45f0b8	0.19330108
253	0x3e6df06c	0.23236245
254	0x3e1aa608	0.15102398
255	0xbe684555	-0.22682698

arith.constant17 f4 [200, 4]
0	0xbdbe0637	-0.09278529
1	0xbd0b14df	-0.03395545
2	0x3d1f9246	0.038957857
3	0x3d453f36	0.048155986
4	0xbe154c1e	-0.14579818
5	0xbd33da85	-0.04390957
6	0x3dde8c9d	0.108666636
7	0x3e31be44	0.17357737
8	0x3bebe39a	0.007198763
9	0x3d36f52b	0.044667404
10	0xbded3558	-0.1158244
11	0x3e2aca94	0.1667884
12	0x3d940c71	0.072289355
13	0xbd048504	-0.032353416
14	0xbccbf683	-0.02489782
15	0xba45ecb9	-0.0007550228
16	0x3db760a6	0.08953981
17	0x3d3e8aae	0.046518974
18	0x3da14cf0	0.07876003
19	0xbe01cb8f	-0.12675308
20	0xbd553b93	-0.052058768
21	0xbb1b89ce	-0.002373326
22	0x3cbf8f3e	0.023383733
23	0xbdc59628	-0.09647781
24	0xbd6575c7	-0.056020524
25	0x3e251197	0.16119991
26	0x3d3a20c7	0.045441415
27	0x3e4cb379	0.19990338
28	0x3e0f59a6	0.13999042
29	0x3ec70f1c	0.38878715
30	0x3dbe807b	0.093018495
31	0x3e46a226	0.19397792
32	0xbd097d19	-0.033566568
33	0x3ddfb295	0.10922734
34	0x3e0ee58a	0.1395475
35	0x3b021f1a	0.0019854964
36	0x3e690bcc	0.22758406
37	0x3d85c89d	0.065324046
38	0x3e3aa6f7	0.18227755
39	0x3ce71b43	0.028211242
40	0x3e320094	0.17383033
41	0xbc3d765f	-0.011563866
42	0xbd45f75f	-0.048331615
43	0x3e2173fe	0.15766904
44	0xbaf2492d	-0.0018484943
45	0xbc453973	-0.012037623
46	0xbe19ab76	-0.15006813
47	0x3ddc8ff2	0.10769643
48	0x3d3c4733	0.04596634
49	0x3df9b9b9	0.12193627
50	0xbd8854d6	-0.06656806
51	0x3d280534	0.041020587
52	0x3e00834b	0.12550084
53	0xbe0d5666	-0.1380249
54	0x3dbb15bc	0.09135005
55	0x3e03321a	0.12812081
56	0x3b54159c	0.0032361513
57	0xbd9c57de	-0.07633947
58	0xbe137cf7	-0.14403139
59	0xbca9165f	-0.02064055
60	0x3e1a5e76	0.15075096
61	0x3e344a72	0.17606524
62	0xbdc36369	-0.09540445
63	0xbc1d1716	-0.009588024
64	0xbd5b522d	-0.053545166
65	0xbc3049c8	-0.010759778
66	0x3e17046a	0.14747778
67	0xbd9f342c	-0.07773623
68	0xbc7c6e56	-0.0154071655
69	0x3dbf1983	0.09331038
70	0x3df0151b	0.117227755
71	0xbcf8720f	-0.030327825
72	0xbd9392b4	-0.07205716
73	0xbde4e692	-0.1117679
74	0x3e520fd4	0.2051385
75	0x3e4f2592	0.20229176
76	0x3bca5ae4	0.006175386
77	0x3bc0fdfe	0.005889653
78	0x3e4a69b3	0.19766884
79	0x3e43ace7	0.19108926
80	0x3e52b646	0.20577344
81	0x3e500baf	0.20316957
82	0x3e515cdd	0.20445581
83	0x3e946de4	0.2899009
84	0x3ca7c745	0.020480761
85	0xbc9cfa3a	-0.019162286
86	0x3d1eac60	0.03873861
87	0xbb816588	-0.003948871
88	0x3db30192	0.08740534
89	0xbd1953de	-0.037433498
90	0xbdfec214	-0.12439361
91	0x3e1c0c50	0.15239072
92	0xbc9cf235	-0.019158462
93	0xbd95fc01	-0.073234566
94	0xbceea740	-0.029132485
95	0x3cd9adae	0.026572075
96	0xbdc92161	-0.0982082
97	0x3d9f46a6	0.07777147
98	0xbe26a606	-0.1627427
99	0x3e16f1a9	0.14740624
100	0xbd15871c	-0.036505803
101	0xbbeba3eb	-0.0071911714
102	0xbd5df39e	-0.05418741
103	0x3c9a63bf	0.01884639
104	0x3dcfab5a	0.101401046
105	0xbdcf427d	-0.101201035
106	0x3d200fb4	0.039077476
107	0xbcedf160	-0.02904576
108	0xbdbaa67e	-0.09113787
109	0x3d204db7	0.039136615
110	0xbdf5fd32	-0.12011184
111	0x3e213f3c	0.15746778
112	0xbd5112af	-0.05104321
113	0x3e13193f	0.143651
114	0xbc8ed826	-0.017437052
115	0x3e088930	0.13333583
116	0x3ce8a2bf	0.028397916
117	0xbe0a6a63	-0.13517146
118	0x3d159f83	0.036529075
119	0x3d73f1e3	0.059556853
120	0x3c262cb2	0.010142492
121	0x3df6b89b	0.120469294
122	0x3e0022f6	0.12513337
123	0xbc8a2d4a	-0.016867299
124	0x3e308f1f	0.17242096
125	0x3d30959a	0.04311142
126	0x3e0f2d23	0.13982062
127	0xbdf180f7	-0.11792176
128	0x3d1e3e8e	0.038633876
129	0x3d093110	0.033494055
130	0xbd2b734f	-0.041858014
131	0xbe187a9f	-0.14890526
132	0x3d6e950f	0.058247622
133	0x3de4cf30	0.111723304
134	0xbd50e011	-0.050994936
135	0x3d22722c	0.039659664
136	0xbdd90c5a	-0.10598059
137	0xbe047def	-0.12938665
138	0xbe246727	-0.16054974
139	0xbcf2057a	-0.029543627
140	0x3dff537b	0.124670945
141	0xbd5f2d5e	-0.054486625
142	0x3e0ebebf	0.13939951
143	0x3daa05fb	0.08301922
144	0x3be81c3e	0.007083445
145	0x3c3e865c	0.011628713
146	0xbda4434d	-0.08020649
147	0xbda83806	-0.082138106
148	0xbd5791e6	-0.052629374
149	0xbd40ab99	-0.04703865
150	0xbda1afca	-0.07894857
151	0x3dda38cd	0.10655365
152	0x3e9a3b34	0.30123293
153	0xbc4f76bf	-0.012662589
154	0x3bf45bd8	0.0074572377
155	0xbad66fa9	-0.0016360182
156	0xbd185f55	-0.03720029
157	0xbd8ed8b6	-0.06974928
158	0xbe2842ca	-0.16431728
159	0xbdeb7632	-0.11497153
160	0x3d7c3251	0.061571423
161	0xbd528a97	-0.0514017
162	0x3cb60152	0.022217426
163	0x3e2249cd	0.15848465
164	0x3e085df6	0.13317093
165	0x3e728b02	0.2368584
166	0x3e5e0465	0.21681364
167	0x3dc76b91	0.097373135
168	0x3e2ba8ed	0.16763659
169	0x3dde13ad	0.108435966
170	0x3d3b1b8c	0.045680568
171	0x3d2abb9b	0.04168282
172	0x3db3d315	0.08780495
173	0xbdcba1ff	-0.09943008
174	0x3dcfd9c8	0.1014896
175	0xbc6001c3	-0.013672295
176	0xbd134677	-0.035955872
177	0x3db93d70	0.090449214
178	0x3ca8544c	0.020548008
179	0xbd543f88	-0.0518184
180	0xbde25dcf	-0.11053049
181	0x3d8338b1	0.064072974
182	0x3de27ea3	0.1105931
183	0xbda98aff	-0.082784645
184	0xbe0c6daf	-0.13713716
185	0x3e3666ce	0.17812654
186	0x3b37ae6f	0.0028027555
187	0xbd0ebae2	-0.034846194
188	0x3dacc697	0.084363155
189	0xbe03239b	-0.12806551
190	0xbd5ee2c3	-0.054415476
191	0x3dcd005c	0.10009834
192	0xbd927770	-0.07151687
193	0xbd9320f0	-0.07184017
194	0xbcca51a4	-0.024697132
195	0x3db439f2	0.08800115
196	0xbdbefa54	-0.0932509
197	0xbdc88714	-0.09791389
198	0x3e190cf6	0.1494635
199	0xbdbd2758	-0.0923602
200	0x3dfe9161	0.124300726
201	0xbcc71437	-0.024301631
202	0xbdb08e29	-0.08620865
203	0xbd2a681a	-0.041603185
204	0x3d1f0254	0.03882058
205	0x3e15e4bd	0.14638038
206	0xbcffe4ab	-0.031236967
207	0x3bbcb48a	0.0057588266
208	0x3e1cf892	0.15329197
209	0x3d837d88	0.064204276
210	0x3d85f521	0.06540895
211	0xbe0a92bc	-0.13532537
212	0x3e17e8fa	0.14834967
213	0x3d280649	0.04102162
214	0xbd4a8093	-0.049439024
215	0x3dfd7b8a	0.12377079
216	0xbe349789	-0.17635931
217	0xbe0b6f4c	-0.13616675
218	0x3d0a0053	0.033691715
219	0x3ca84123	0.020538872
220	0xbdaf4991	-0.085589536
221	0x3d4ed36b	0.050494593
222	0xbde4e528	-0.111765206
223	0x3df505f9	0.1196403
224	0x3e1bfc2c	0.15232915
225	0xbe0e9fc5	-0.13928135
226	0x3d96dde5	0.07366542
227	0x3c914dc1	0.017737271
228	0xbd6839c9	-0.056695733
229	0xbe151021	-0.14556934
230	0xbdb3f1fa	-0.08786388
231	0xb8e7bf08	-0.00011050521
232	0xbdec8fe1	-0.1155088
233	0x3da5d50e	0.080972776
234	0xbdd97071	-0.106171496
235	0x3e0ce25a	0.13758221
236	0xbe41383a	-0.18869105
237	0x3e0e6f9d	0.13909765
238	0x3d17838c	0.036990687
239	0x3dbba558	0.09162396
240	0x3b7d19ab	0.0038620036
241	0x3daedbbe	0.08538006
242	0x3d0ae775	0.03391214
243	0x3c9e3797	0.019313617
244	0xbd15c835	-0.036567885
245	0xbd47861b	-0.048711877
246	0x3d14469d	0.036200155
247	0xbd1f90ca	-0.03895644
248	0x3c05d8df	0.008169382
249	0x3c945998	0.018109128
250	0x3dcd7412	0.10031904
251	0x3e172230	0.14759135
252	0x3cb2b5bf	0.021815179
253	0xbdc2df79	-0.0951528
254	0xbd412ff2	-0.047164865
255	0xbd847e96	-0.06469457

arith.constant18 f4 [200, 50]
0	0xbddb8f65	-0.1072071
1	0x3ccbe772	0.024890635
2	0x3d133cff	0.035946842
3	0x3d7958b9	0.06087563
4	0x3db46c8f	0.088097684
5	0xbd9e1945	-0.077196635
6	0x3d934ac6	0.07191996
7	0xbc9d9734	-0.019237138
8	0xbdba8cb0	-0.09108865
9	0x3d5463b5	0.0518529
10	0xbd3fafd7	-0.046798553
11	0x3da80fff	0.08206176
12	0xbc0dfc45	-0.008666103
13	0x3b073274	0.0020629438
14	0x3bd607b3	0.0065316795
15	0xbceb1304	-0.02869559
16	0xbc27d381	-0.010243298
17	0x3ccaf417	0.024774594
18	0xbe195527	-0.1497389
19	0x3d3f345b	0.04668079
20	0x3d25b4e1	0.040455703
21	0x3c3cf7f4	0.011533726
22	0x3d8ccffa	0.06875606
23	0xb9b80696	-0.00035100122
24	0x3dc53040	0.096283436
25	0x3c1e113e	0.009647666
26	0x3c74c450	0.014939383
27	0x3cb2a476	0.021806937
28	0x3e20dd76	0.1570948
29	0x3d1d1e25	0.038358826
30	0x3d674a8f	0.05646759
31	0xbc1cd612	-0.009572523
32	0xbaeba720	-0.0017978884
33	0xbd77a58d	-0.060460616
34	0xbcbb516f	-0.022865979
35	0xbdc2a74c	-0.095045656
36	0x3d63d5e9	0.055623922
37	0x3d2dc061	0.042419795
38	0x3e146248	0.14490616
39	0xbc030bc1	-0.007998408
40	0xbdf21d7d	-0.11822031
41	0xbc94b871	-0.018154355
42	0xbd96e142	-0.07367183
43	0xbe18db76	-0.14927468
44	0x3cdb9b6a	0.026807506
45	0xbe02f2d7	-0.12787949
46	0xbb79437d	-0.003803461
47	0x3cd40109	0.0258794
48	0xbbaea01d	-0.0053291456
49	0x3e2b617b	0.16736405
50	0x3a966bd9	0.0011476233
51	0x3c378d77	0.011203161
52	0x3a89b578	0.0010506352
53	0xbd89b20a	-0.067234114
54	0x3d85509e	0.06509517
55	0xbc037179	-0.008022659
56	0xbd3f2cfa	-0.046673752
57	0x3da71888	0.08158976
58	0xbe24146e	-0.16023418
59	0xbe1471d9	-0.14496554
60	0x3d6e4b3e	0.058177225
61	0xbbe72d09	-0.007054929
62	0x3d310c4c	0.043224618
63	0x3d8e1c12	0.06938948
64	0x3e29be71	0.16576554
65	0x3ce7bbcc	0.02828779
66	0xbd9a33f1	-0.07529438
67	0xbd563b9c	-0.05230294
68	0xbd8f99d6	-0.07011764
69	0xbcffd1ee	-0.031228032
70	0x3ddd83ab	0.10816129
71	0xbd563474	-0.052296117
72	0x3ea5ced1	0.3238435
73	0x3cda07e8	0.026615098
74	0x3d08151d	0.03322326
75	0xbda03237	-0.07822078
76	0x3d16f162	0.036851294
77	0xbd47cfba	-0.048782088
78	0xbdc242c2	-0.09485389
79	0xbdb870fc	-0.09005925
80	0x3c53a3b3	0.012917447
81	0x3cfae8b6	0.030628543
82	0x3dec7ce2	0.11547257
83	0x3c8f14f6	0.01746605
84	0x3ccdb086	0.025108587
85	0xbd726064	-0.059173957
86	0x3d8d9d83	0.069148086
87	0xbc80469d	-0.015658671
88	0xbdec6ca0	-0.11544156
89	0x3c6974b5	0.0142490165
90	0xbd03465e	-0.03204953
91	0x3d85ca21	0.06532694
92	0xbcdbdeaf	-0.026839582
93	0x3d99057a	0.07471748
94	0xbd2e46bd	-0.04254793
95	0x3c21477b	0.009843702
96	0xbd8602ba	-0.06543489
97	0xbd20da52	-0.039270706
98	0x3dac0454	0.08399263
99	0xbdca987a	-0.09892364
100	0xbdd82825	-0.10554532
101	0xbdf965a0	-0.121775866
102	0x3d922165	0.07135276
103	0x3e1f8c7b	0.15580933
104	0x3e00dbde	0.12583873
105	0x3d02cd39	0.031933997
106	0xbd861a03	-0.0654793
107	0x3e51c1b8	0.20484054
108	0xbaa3ea9e	-0.0012505834
109	0x3dfeed86	0.12447648
110	0x3d02319c	0.031785592
111	0x3d314f35	0.04328843
112	0x3d17e765	0.03708591
113	0x3d7fbf49	0.062438283
114	0xbd91f51a	-0.071268275
115	0x3a06ccdb	0.000514222
116	0xbd8e7e95	-0.06957737
117	0x3d5c8d39	0.053845618
118	0x3d14df7c	0.036345944
119	0x3cb69087	0.022285713
120	0xbc9ec06c	-0.019378863
121	0x3de6a69a	0.112622455
122	0xbe1f3596	-0.15547785
123	0x3d581604	0.05275537
124	0xbcbf04f8	-0.023317799
125	0xbcca7b5c	-0.024717025
126	0xbd799de8	-0.060941607
127	0x3d9baace	0.07600938
128	0x3d6d13b9	0.057880137
129	0xbe07f91d	-0.13278623
130	0x3d012c72	0.031536527
131	0x3cd89109	0.026436346
132	0xbc69b601	-0.0142645845
133	0x3b1dd6ef	0.002408441
134	0x3dd7d47d	0.10538576
135	0x3ddc2d04	0.107507735
136	0xbd764875	-0.060127694
137	0xbd6b26d0	-0.05741006
138	0x3ddf6bd8	0.109092414
139	0xbc7d7b19	-0.015471243
140	0x3cf4dd7d	0.02989077
141	0x3e427bb7	0.18992506
142	0x3d903ccd	0.07042847
143	0x3cd54577	0.0260341
144	0xbd5b033e	-0.05346989
145	0xbd8de450	-0.06928313
146	0x3e304bb0	0.17216372
147	0x3ca58dc7	0.020209206
148	0xbb3e9553	-0.0029080703
149	0xbcbe8f0a	-0.023261566
150	0x3e0dc624	0.13845116
151	0xbd83293e	-0.06404351
152	0xbd62d159	-0.05537543
153	0x3db6fdc4	0.08935121
154	0xbd0b22ac	-0.033968613
155	0x3e2aa349	0.16663851
156	0xbd326fcc	-0.04356365
157	0x3dcd872b	0.10035547
158	0x3d9daf6b	0.07699474
159	0x3d3063df	0.043063994
160	0x3b35223b	0.002763881
161	0xbcf398c4	-0.02973593
162	0x3d5d15f8	0.05397603
163	0x3de409ef	0.11134707
164	0x3d4ae2be	0.049532644
165	0x3b87a908	0.004140023
166	0xbd89947b	-0.067177735
167	0xbb876e0d	-0.004132992
168	0x3e361ace	0.17783663
169	0x3debf34c	0.115210146
170	0xbca73bb4	-0.02041421
171	0x3de63663	0.11240842
172	0x3dec21e6	0.11529903
173	0xbd8b935b	-0.06815215
174	0xbccdef0b	-0.025138399
175	0x3d690563	0.056889903
176	0xbdc148e5	-0.09437732
177	0xbda70c24	-0.081566125
178	0x3d3844ba	0.044987418
179	0xbd79a570	-0.06094879
180	0x3d856bfd	0.06514738
181	0x3d2aef82	0.04173232
182	0x3ca69352	0.02033392
183	0xbb8f7d51	-0.0043789526
184	0xbd9e161c	-0.07719061
185	0x3b610a78	0.0034338515
186	0x3da0261f	0.07819771
187	0x3e45fc3b	0.193345
188	0x3bc9a894	0.0061541293
189	0xbd8cfca3	-0.06884124
190	0x3b93a6de	0.004505976
191	0xbdc6d446	-0.09708457
192	0x3de9e631	0.11420859
193	0x3cb7ab37	0.022420509
194	0xbd1b3310	-0.037890494
195	0xbc8a0596	-0.016848367
196	0xbd0775b8	-0.03307125
197	0xbe746c1e	-0.23869368
198	0x3db39163	0.08767965
199	0xbd947105	-0.07248119
200	0x3a86a14d	0.001027146
201	0x3d61a5de	0.055089824
202	0x3d361fc4	0.044463888
203	0x3d9c7bb4	0.07640782
204	0xbd10c60b	-0.03534512
205	0xbd3a7468	-0.04552117
206	0x3ddc6b49	0.107626505
207	0x3d3e160f	0.046407755
208	0x3b50ec29	0.0031879044
209	0x3d71ac63	0.05900229
210	0x3d72e23b	0.05929778
211	0xbdec968b	-0.11552151
212	0x3d1b98f4	0.037987664
213	0xbcfdaccf	-0.03096619
214	0x3d5a9b9c	0.053371057
215	0xbc2bd8e4	-0.0104887225
216	0xbd923cfa	-0.071405366
217	0xbdb20d0e	-0.08693896
218	0x3d168c70	0.036755025
219	0x3d0723ad	0.032993007
220	0xbc36b855	-0.011152347
221	0x3ccbba3b	0.024869075
222	0x3d96ee49	0.07369668
223	0x3e2c9cb2	0.1685665
224	0xbc49eab1	-0.012324021
225	0xbc483a9f	-0.012221008
226	0x3cbb6c11	0.022878679
227	0xbdc6bc15	-0.097038426
228	0xbcdc67f2	-0.026905034
229	0x3d541f55	0.051787693
230	0x3cc34f45	0.02384151
231	0x3c7ed557	0.015553794
232	0x39fc6fc6	0.00048148463
233	0xbd7b98c4	-0.061424986
234	0x3d516e5d	0.05113064
235	0x3d38c15a	0.04510627
236	0x3d66645b	0.05624805
237	0x3e0316ba	0.12801638
238	0xbdbc6774	-0.091994196
239	0x3c6227a8	0.0138034
240	0x3e283f22	0.16430333
241	0x3caeb183	0.021324879
242	0xbdf1c324	-0.11804798
243	0xbd103313	-0.03520496
244	0xbdd58253	-0.10425248
245	0x3c6e1111	0.014530436
246	0x3d12e270	0.03586048
247	0x3ce71ae5	0.028211066
248	0xbd0e602b	-0.03475968
249	0xbdbcf3bf	-0.092261784
250	0x3c4927f9	0.012277597
251	0xbdcb1041	-0.099152096
252	0x3d088afb	0.033335667
253	0x3d24b505	0.040211696
254	0xbced43d0	-0.028963
255	0xbd79be98	-0.06097278

sequential_1/lstm_1/while/lstm_cell_1/add_1/ReadVariableOp f4 [200]
0	0xbc32de1d	-0.010917214
1	0xbba0d2d3	-0.0049079447
2	0xbabc3cc6	-0.0014361374
3	0x3dcca6e6	0.09992771
4	0xba9bce0e	-0.0011886971
5	0xbbbeab32	-0.005818748
6	0x3bcf35d0	0.0063235536
7	0x3ea0a478	0.3137548
8	0x3d9001a5	0.07031564
9	0x3d43abf5	0.047771413
10	0x3c9c5ad6	0.019086283
11	0xb9f7898f	-0.00047214
12	0xbbbc82c9	-0.0057528955
13	0x39be6177	0.0003631224
14	0xbbac60c8	-0.0052605607
15	0x3b1bd851	0.0023780058
16	0x3bef93a3	0.007311301
17	0xb998654a	-0.00029067165
18	0x3cc64575	0.024203042
19	0x3cd29a69	0.025708394
20	0x3e2b3f40	0.16723347
21	0x3cc07f74	0.023498274
22	0xbc902632	-0.017596338
23	0x3b77a951	0.003779013
24	0xbbcb4980	-0.0062038302
25	0x3c031cc1	0.008002461
26	0x3c0e5dd3	0.008689362
27	0x3b885104	0.0041600484
28	0xbce61051	-0.028083952
29	0xbd8f9da0	-0.070124865
30	0x3c77980d	0.015111935
31	0x3b3fdf2a	0.0029277303
32	0x3c901fc2	0.017593268
33	0xbcceddf1	-0.025252314
34	0xbcd84c82	-0.02640367
35	0xbcbca763	-0.023029035
36	0x3baf0653	0.00534133
37	0x3b02c606	0.0019954457
38	0x3e668de1	0.2251506
39	0xbc3ba1d0	-0.011452153
40	0x3b95d89d	0.0045729415
41	0x3e681d01	0.22667314
42	0xbc093c5d	-0.008376208
43	0x3cf09a11	0.02937034
44	0xbbeb4949	-0.007180367
45	0x3ccb6220	0.024827063
46	0xb816853a	-3.5886864e-05
47	0xbc9788a7	-0.018497778
48	0x3c0d2be8	0.008616425
49	0x3c939536	0.018015485
50	0x3f79e02e	0.97607696
51	0x3f792011	0.97314554
52	0x3f78b12d	0.9714535
53	0x3f71c14a	0.9443556
54	0x3f79755a	0.9744469
55	0x3f7b5f20	0.98192024
56	0x3f79a2f8	0.97514296
57	0x3f569ca5	0.8383277
58	0x3f75c19f	0.9599857
59	0x3f6a93c9	0.9163175
60	0x3f7896a2	0.9710485
61	0x3f7abae1	0.97941405
62	0x3f7af81a	0.9803482
63	0x3f73d342	0.9524423
64	0x3f7dcba0	0.9913883
65	0x3f6f9a3f	0.93594736
66	0x3f79a420	0.9751606
67	0x3f7d5b15	0.98967105
68	0x3f791422	0.97296345
69	0x3f6d40a4	0.9267676
70	0x3f653373	0.8953163
71	0x3f74988c	0.9554527
72	0x3f754cc2	0.9582025
73	0x3f77077c	0.96495795
74	0x3f7c5b5c	0.98576903
75	0x3f7af404	0.9802859
76	0x3f7a259b	0.9771363
77	0x3f7e4e04	0.9933779
78	0x3f78e23f	0.97220224
79	0x3f654f0b	0.89573735
80	0x3f7717f2	0.9652091
81	0x3f773ac1	0.96574026
82	0x3f776d87	0.966515
83	0x3f78d142	0.971943
84	0x3f77ebe9	0.96844345
85	0x3f76d4a5	0.9641822
86	0x3f779d05	0.9672397
87	0x3f7ce1b9	0.98781925
88	0x3f6a7636	0.91586626
89	0x3f751187	0.9572987
90	0x3f7305de	0.9493083
91	0x3f57fe50	0.84372425
92	0x3f7372bb	0.9509694
93	0x3f79bec4	0.9755671
94	0x3f7ba3a4	0.9829657
95	0x3f736773	0.95079726
96	0x3f7d50f1	0.9895163
97	0x3f7987e6	0.9747299
98	0x3f7d7df4	0.99020314
99	0x3f7b7610	0.98227024
100	0xbd580371	-0.052737657
101	0x3d2dba94	0.042414263
102	0x3c098b35	0.008395006
103	0xbde3c380	-0.11121273
104	0xbcabf258	-0.020989582
105	0xbb3fc1a2	-0.0029259701
106	0x3d982d0b	0.07430466
107	0xbdaed834	-0.08537331
108	0xbdaa3778	-0.08311361
109	0xbd924f4d	-0.07144032
110	0x3d46e418	0.04855737
111	0x3ce07ba7	0.027402712
112	0xbd5a584a	-0.053306855
113	0xbb8cdd96	-0.004298876
114	0x3c02554d	0.007954908
115	0xbd188188	-0.037232906
116	0x3d3f1efb	0.046660405
117	0xbcdc81dd	-0.026917392
118	0xbd4a0d0a	-0.04932884
119	0xbcf05c2d	-0.029340828
120	0x3db05e4e	0.08611737
121	0xbd3402a2	-0.043947823
122	0xbd0d9b08	-0.034571677
123	0x3bcded71	0.0062844087
124	0x3d10fa97	0.03539523
125	0x3d90176d	0.07035718
126	0x3cf52140	0.029923081
127	0xbd0899b2	-0.0333497
128	0xbcbda737	-0.023151023
129	0x3cb7ccca	0.022436518
130	0x3d868cca	0.06569822
131	0xbd8ce726	-0.068800256
132	0x3d10cb0e	0.035349898
133	0x3c91e739	0.01781045
134	0x3d4fda17	0.050745096
135	0xbd149643	-0.036276113
136	0xbd155a24	-0.036462918
137	0x3d03ceca	0.03217963
138	0xbdce7a46	-0.100819156
139	0x3da78f08	0.08181578
140	0xbd52d70b	-0.051474612
141	0xbda82eda	-0.08212061
142	0xbd3f645d	-0.046726573
143	0xbdcf935b	-0.10135528
144	0xbc9c88bf	-0.019108174
145	0x3d9ad83d	0.075607754
146	0x3caf1ab4	0.021375038
147	0x3d6fee06	0.058576606
148	0xbd2b47d2	-0.04181654
149	0xbd289da5	-0.041165967
150	0xbc1027bc	-0.008798536
151	0xbb7cb1f5	-0.003855822
152	0xbab3292e	-0.0013668889
153	0x3db9f978	0.090807855
154	0x3a067a3e	0.000512991
155	0xbc0b89eb	-0.008516769
156	0x3bcea2cb	0.0063060275
157	0x3e9f5579	0.31119898
158	0x3d873e06	0.06603627
159	0x3cc90b43	0.024541503
160	0x3c94e0f4	0.018173672
161	0xba71f073	-0.000922925
162	0xbad9aff6	-0.0016608227
163	0x3bb05557	0.005381267
164	0xbbb6eebf	-0.00558266
165	0xbb302f92	-0.0026883823
166	0x3bd3855b	0.006455106
167	0x3a1855a1	0.00058110995
168	0x3cbb26bc	0.022845618
169	0x3ce23709	0.027614133
170	0x3e1a048c	0.15040797
171	0x3c60a52d	0.013711256
172	0xbc8990b9	-0.016792642
173	0x3af765c0	0.0018874928
174	0xbbced7e4	-0.0063123573
175	0x3bb8f66a	0.005644609
176	0x3bf25ed9	0.0073965606
177	0x3bb6631d	0.0055660144
178	0xbcdbef46	-0.026847493
179	0xbd99799b	-0.074938975
180	0x3c24fddc	0.01007029
181	0x3b2274a7	0.0024788768
182	0x3c8b6c30	0.017019361
183	0xbcc9ca51	-0.024632605
184	0xbcc31a1b	-0.023816159
185	0xbccca59d	-0.024981314
186	0x378acc72	1.6546084e-05
187	0x3af22a8d	0.0018475816
188	0x3e6c1e84	0.23058516
189	0xbc5fe7c7	-0.0136661
190	0x3ae9cecc	0.001783812
191	0x3e6065f7	0.21913897
192	0xbbdb000e	-0.006683356
193	0x3cc87b11	0.024472745
194	0xbbfb4581	-0.0076681976
195	0x3cae048c	0.021242402
196	0xbb48b893	-0.0030627593
197	0xbc93e438	-0.01805316
198	0x3c0ba7c9	0.00852389
199	0x3c832dd5	0.016013065

arith.constant22 f4 [200, 50]
0	0xbc33ab9e	-0.01096621
1	0xbe13d188	-0.14435399
2	0xbe096403	-0.13417058
3	0x3e00794b	0.1254627
4	0xbd2e4c5a	-0.042553283
5	0xbd9ec314	-0.07752052
6	0xbde4d171	-0.1117276
7	0x3d15d484	0.036579624
8	0xbc8853b5	-0.016641477
9	0xbd22249c	-0.039585695
10	0x3e1538d2	0.14572456
11	0x3da819a7	0.08208018
12	0x3cbbb7c7	0.02291478
13	0xbda95b2d	-0.082693435
14	0xbe027939	-0.12741555
15	0x3e30010f	0.17187904
16	0xbd0feb48	-0.03513649
17	0x3c87d9a5	0.016583273
18	0x3db21f3e	0.08697365
19	0x3d528a85	0.051401634
20	0xbc991abd	-0.018689508
21	0x3cf5ba30	0.029996008
22	0x3d99a46c	0.07502064
23	0x3d0178b1	0.03160924
24	0x3d6a80b0	0.057251632
25	0xbe15cc42	-0.146287
26	0xbd9f844c	-0.077889055
27	0x3d8b7efd	0.068113305
28	0xbdfdd59e	-0.1239426
29	0xbe1914b4	-0.14949304
30	0x3dba80dc	0.09106609
31	0x3d84a4ca	0.064767435
32	0xbe0f34a0	-0.13984919
33	0x3d3329dd	0.043741096
34	0xbe15411f	-0.14575623
35	0x3d4c3e2c	0.04986398
36	0xbc35d40e	-0.011097921
37	0xbdba582d	-0.090988494
38	0xbc7c68ae	-0.015405817
39	0x3da0db1d	0.078542925
40	0xbd568c2f	-0.052379783
41	0x3e0c00a6	0.13672122
42	0xbd0b011c	-0.033936605
43	0xbd800767	-0.06251412
44	0xbcac5ff6	-0.021041851
45	0xbe0a738c	-0.1352064
46	0x3db8e2f6	0.09027664
47	0xbb2c8b28	-0.002632806
48	0x3d6a75df	0.057241317
49	0xbdd1da84	-0.10246757
50	0xbdea665d	-0.114453055
51	0x3d89047b	0.06690308
52	0xbd684463	-0.056705844
53	0x3d925555	0.07145182
54	0x3e05f103	0.1308022
55	0x3dea025d	0.11426232
56	0x3e0be208	0.13660443
57	0xbdff5895	-0.124680676
58	0x3d8a0de6	0.06740932
59	0xbd73a72e	-0.059485607
60	0xbca7ee6e	-0.020499434
61	0x3e079d52	0.13243607
62	0xbd186cf2	-0.037213273
63	0x3df3ec96	0.119103596
64	0xbd526d12	-0.05137355
65	0xbe186717	-0.14883076
66	0xbd03be79	-0.03216407
67	0x3d82a732	0.06379546
68	0xbe207d68	-0.15672839
69	0x3dddcd85	0.10830215
70	0x3c15a45b	0.009133424
71	0xbd11c584	-0.035588756
72	0x3dc48250	0.09595168
73	0xbdccd657	-0.100018196
74	0x3d4d67eb	0.050147932
75	0x3d31580a	0.04329685
76	0xbdb1844c	-0.08667812
77	0xbd9961a2	-0.07489325
78	0xbe15182f	-0.14560007
79	0xbdea5515	-0.11442009
80	0x3cde3d8e	0.027128961
81	0x3debd943	0.11516049
82	0xbe0d10bf	-0.1377592
83	0xbdaee379	-0.08539481
84	0xbd88d012	-0.06680311
85	0x3df62ac7	0.12019878
86	0xbd145af8	-0.036219567
87	0x3d09e04d	0.033661176
88	0xbd458460	-0.048221946
89	0xbd0f34a9	-0.03496233
90	0xbca8f632	-0.020625208
91	0x3d8ef147	0.06979614
92	0xbb19c9e4	-0.0023466283
93	0xbde9773b	-0.113996945
94	0x3def3821	0.116806276
95	0x3dfa1a2f	0.122120254
96	0xbe074661	-0.13210441
97	0xbd8e6f5e	-0.06954835
98	0xbdb19c68	-0.0867241
99	0x3d46dc1d	0.04854976
100	0x3d3f31af	0.04667824
101	0x3dda1d5a	0.106501296
102	0x3cff3ce9	0.031156974
103	0xbdbb4846	-0.091446444
104	0x3e00ca48	0.12577164
105	0x3d7155b7	0.058919635
106	0xbd482a96	-0.048868738
107	0xbde75dd9	-0.11297197
108	0x3d16dcf6	0.03683182
109	0x3d97379a	0.07383652
110	0x3e1ca9de	0.15299174
111	0xbdb1bd25	-0.086786546
112	0xbcb10084	-0.021606691
113	0xbc1c5c6c	-0.0095435195
114	0xbccf5c26	-0.025312494
115	0x3dd72be9	0.10506422
116	0x36a0c944	4.791802e-06
117	0x3d26e84c	0.04074888
118	0x3da7bf81	0.08190823
119	0xbd1c46b5	-0.03815337
120	0xbdf7b160	-0.120943785
121	0xbc3c58bb	-0.011495764
122	0x3ddc4b37	0.107565336
123	0x3df134a0	0.117776155
124	0x3dc88c39	0.0979237
125	0xbd9d75d5	-0.0768849
126	0xbd6b9991	-0.0575195
127	0xbe0f91ba	-0.14020434
128	0xbda32bed	-0.079673626
129	0xbd15060a	-0.036382712
130	0x3c0d22d8	0.008614264
131	0x3df13a16	0.11778657
132	0xbdf31bf0	-0.11870563
133	0x3dd89384	0.105750114
134	0xbd374815	-0.044746477
135	0xbd9b1e3a	-0.07574125
136	0xbcf2b4b4	-0.029627182
137	0xbd7dd8f6	-0.06197449
138	0x3e09529c	0.13410419
139	0x3da4724e	0.080296144
140	0xbdb4a8e1	-0.088212736
141	0x3dc7e62b	0.09760698
142	0x3cf96924	0.030445643
143	0xbe09bb9d	-0.13450475
144	0xbe09c078	-0.13452327
145	0xbd3c9d06	-0.046048187
146	0xbd9b99a1	-0.07597662
147	0xbdc65520	-0.09684205
148	0xbd2dded8	-0.04244885
149	0x3d39f6de	0.045401447
150	0x3ba1b1ed	0.0049345405
151	0x3de309e8	0.11085874
152	0x3d76a918	0.060219854
153	0x3d22786e	0.039665632
154	0x3dfea7d2	0.12434353
155	0x3d961679	0.07328505
156	0x3b8b6289	0.0042536897
157	0x3d3ea7de	0.04654681
158	0xbd4ca1dc	-0.04995905
159	0xbdc21b8e	-0.09477912
160	0xbe0080dd	-0.12549157
161	0xbd081387	-0.033221748
162	0x3da11c83	0.07866766
163	0xbd5fa468	-0.05460015
164	0x3dda31c9	0.10654027
165	0xbe062fdb	-0.13104193
166	0x3d419792	0.04726369
167	0xbb8d858e	-0.0043188995
168	0xbc9f90cb	-0.019478222
169	0x3ddf4d3d	0.10903404
170	0xbe24b495	-0.16084512
171	0xbd47734d	-0.048693944
172	0x3db22530	0.08698499
173	0xbd5b6d01	-0.05357075
174	0x3d869d24	0.06572941
175	0xbe272e67	-0.16326295
176	0xbde89987	-0.11357408
177	0xbc3922a4	-0.011299763
178	0xbde056a4	-0.109540254
179	0x3e169917	0.14706837
180	0xbe09c75f	-0.1345496
181	0xbe0606f3	-0.13088588
182	0x3d974a18	0.07387179
183	0xbd4dc030	-0.050232112
184	0x3c762c39	0.015025192
185	0xbd21171a	-0.039328672
186	0xb7632fbc	-1.3541368e-05
187	0xbc4b873f	-0.012422382
188	0x3aa53cf3	0.0012606665
189	0xbe14aab7	-0.14518248
190	0xbd99a62f	-0.075024
191	0xbdebc45f	-0.11512064
192	0x3d307460	0.043079734
193	0xbc8d2c5d	-0.017233068
194	0xbe051e75	-0.129999
195	0xbc145a67	-0.009054757
196	0xbdbebcc5	-0.09313349
197	0xbcd7d40f	-0.026346235
198	0x3e0f6832	0.14004591
199	0x3c6bf73c	0.014402207
200	0xbdea1c0c	-0.11431131
201	0xbdc0bd9b	-0.094111644
202	0xbd50decb	-0.050993722
203	0xbdd8bcf6	-0.105829164
204	0xbd9edbe2	-0.07756783
205	0xbdf4fd38	-0.1196236
206	0xbdff80bf	-0.12475728
207	0x3e287429	0.16450562
208	0xbdec13dc	-0.115272254
209	0xbce0a184	-0.027420767
210	0xbca90101	-0.020630362
211	0x3d014f10	0.03156954
212	0x3d08151e	0.033223264
213	0xbd857525	-0.06516484
214	0xbcfa7a4c	-0.030575894
215	0x3cfd6972	0.03093407
216	0xbe0b4aca	-0.13602749
217	0xbd5426bc	-0.051794752
218	0x3d23e2aa	0.040011086
219	0x3dd64eae	0.10464226
220	0xbdf65c69	-0.120293446
221	0x3d223641	0.03960252
222	0xbdfada45	-0.12248663
223	0x3d052b62	0.032512076
224	0xbda59e38	-0.080868185
225	0xbde3c3ae	-0.11121307
226	0x3cfc18a6	0.030773472
227	0xbd27f2c5	-0.041003007
228	0xbd0602c4	-0.03271748
229	0x3de6c3de	0.112678275
230	0xbe15f008	-0.14642346
231	0xbc4a86ed	-0.01236127
232	0xb8c42150	-9.352213e-05
233	0xbdb7d2c0	-0.08975744
234	0x3d8ca32c	0.0686706
235	0xbdd88028	-0.10571319
236	0xbda8e78b	-0.08247288
237	0x3d1c76a0	0.038199067
238	0xbd07e041	-0.03317285
239	0xbd82e9a8	-0.06392223
240	0xbbe5638b	-0.007000392
241	0x3e2e9623	0.1704946
242	0x3c9aa87f	0.018879173
243	0xbc9004b9	-0.017580377
244	0xbe0cbe6c	-0.13744515
245	0x3ddf86af	0.10914361
246	0x3c152daf	0.00910513
247	0x3cb60a06	0.022221576
248	0xbd3ac454	-0.04559739
249	0x3d829958	0.06376904
250	0xbd91a4d1	-0.07111514
251	0xbd2def8b	-0.042464774
252	0xbd89de32	-0.067318335
253	0xbdb3aed4	-0.0877358
254	0x3d86ef1b	0.065885745
255	0x3d2e3c4a	0.042537965

arith.constant23 f4 [200, 50]
0	0xbca49c36	-0.020094018
1	0xbd7738a7	-0.060356762
2	0x3b90f885	0.004424157
3	0xbc213f5a	-0.009841764
4	0xbe04371b	-0.12911646
5	0xbdc5f122	-0.09665133
6	0xbdd8c62a	-0.10584672
7	0xbd465daf	-0.048429187
8	0x3d4fba40	0.05071473
9	0x3d3615e0	0.044454455
10	0x3d19231e	0.037387006
11	0xbd4b9285	-0.04970028
12	0x3c2687fb	0.010164256
13	0x3d98132e	0.07425533
14	0x3d861649	0.06547219
15	0x3c95c9f1	0.01828477
16	0xbd70b0c9	-0.058762345
17	0x3cfe65f2	0.03105447
18	0x3d72feef	0.059325155
19	0x3c9336db	0.017970493
20	0x3e1f832c	0.15577382
21	0xbe73ecee	-0.2382085
22	0x3d9dd4ad	0.0770658
23	0xbca59845	-0.02021421
24	0x3ccb3644	0.02480615
25	0xbc84453b	-0.016146293
26	0x3d95bd31	0.07311476
27	0x3d77c9c6	0.06049516
28	0x3c9c7c16	0.019102138
29	0xbd505b20	-0.050868154
30	0xbd65a54e	-0.05606585
31	0xbd7a9aff	-0.061182972
32	0xbc1e394b	-0.009657214
33	0xbdabb82d	-0.08384738
34	0xbe04107f	-0.12896918
35	0xbb1a3f11	-0.0023536126
36	0x3c96a94b	0.018391272
37	0x3ccf453b	0.025301566
38	0x3d9ccc53	0.07656159
39	0xbcb079d9	-0.021542476
40	0xbd66d414	-0.056354597
41	0x3caf3b0c	0.02139046
42	0xbdc6819a	-0.09692688
43	0xbc9fcb3f	-0.019506095
44	0x3d8b195a	0.06791945
45	0xbde90527	-0.11377936
46	0x3b27af28	0.002558658
47	0x3d6956af	0.056967434
48	0xbe0da7c7	-0.13833533
49	0x3d425c70	0.047451437
50	0xbd1017f1	-0.035179082
51	0xbd94bdda	-0.07262774
52	0xbe515561	-0.20442726
53	0xbd256ee7	-0.040388968
54	0x3d8ca08b	0.06866559
55	0xbc8661d4	-0.01640407
56	0xbc6b0aed	-0.014345867
57	0xbd7dc186	-0.061952136
58	0x3d541aff	0.051783558
59	0x3a2d16e0	0.0006602835
60	0x3dd59183	0.10428145
61	0x3bca56ca	0.006174897
62	0xbcde189f	-0.02711135
63	0x3d61358d	0.05498271
64	0x3db7da84	0.089772254
65	0x3d057770	0.032584608
66	0x3d941bc1	0.07231856
67	0xbe0a66a7	-0.13515721
68	0x3d9e7ef3	0.077390574
69	0x3d85534b	0.065100275
70	0x3d763a49	0.06011418
71	0xb9ddc795	-0.00042301105
72	0x3d5ad5c9	0.053426538
73	0xbdfa54d3	-0.1222321
74	0x3dabcf29	0.08389122
75	0x3d9c2fba	0.076262906
76	0x3d38cc3b	0.045116644
77	0xbd5bc417	-0.053653803
78	0x3d92321b	0.07138463
79	0xbba2d442	-0.0049691508
80	0x3e54d553	0.20784502
81	0xba862964	-0.0010235724
82	0x3c970404	0.018434532
83	0xbdf0d7c5	-0.11759905
84	0xbdd4530d	-0.10367403
85	0xbd82a354	-0.063788086
86	0xbd683860	-0.05669439
87	0x3cf3287c	0.02968239
88	0xbc16335c	-0.0091675185
89	0x3dd567b7	0.10420173
90	0x3d8e572a	0.06950219
91	0xbd5619ef	-0.052270826
92	0xbd16d005	-0.036819477
93	0x3d54fd73	0.05199952
94	0x3c6ea5dd	0.014565912
95	0xbd139c29	-0.036037598
96	0x3c8dddca	0.017317671
97	0xbc674836	-0.0141163375
98	0x3cb81491	0.022470744
99	0xbd208d0b	-0.03919701
100	0x3c56c1d7	0.013107738
101	0x3dd634f5	0.104593195
102	0x3d937204	0.07199481
103	0x3c1c4600	0.009538174
104	0x3d2b5f49	0.041838918
105	0xbe074e9c	-0.13213581
106	0xbc8ce33f	-0.017198203
107	0xbdea8b14	-0.11452308
108	0xbc9d85a7	-0.01922877
109	0xbb846504	-0.0040403623
110	0xbcda80fb	-0.02667283
111	0xbde67cc9	-0.1125427
112	0x3dbc61b7	0.09198325
113	0x3d805330	0.06265867
114	0xbbeb8a70	-0.007188134
115	0xbd8bb7fa	-0.068222
116	0x3d1c733b	0.03819583
117	0xbda62349	-0.08112199
118	0xbb9beb6b	-0.0047582886
119	0x3c60b596	0.013715168
120	0x3e5d1f84	0.21594054
121	0x3df9605d	0.12176583
122	0xbdba5d94	-0.0909988
123	0xbcd46a27	-0.025929524
124	0xbdd336c9	-0.10313184
125	0xbc1a6441	-0.009423316
126	0x3e5c3103	0.21503071
127	0xbd366ac9	-0.044535432
128	0xbdbdca4d	-0.092671014
129	0x3ddffc5b	0.10936805
130	0xbd8455a5	-0.06461648
131	0x3e00f062	0.12591699
132	0x3e016e19	0.12639655
133	0xbd918771	-0.071059115
134	0xbde3194e	-0.11088811
135	0x3caf9cf2	0.021437142
136	0x3e039a51	0.12851836
137	0xbda9a1c6	-0.08282809
138	0x3d86e1fb	0.06586071
139	0xbd6890a1	-0.056778554
140	0x3a06eb7c	0.0005146784
141	0xbdc7d2c0	-0.09756994
142	0xbd6cd4a2	-0.05781997
143	0xbcdf9d4b	-0.027296683
144	0x3da5ee17	0.08102053
145	0x3be7bd9c	0.0070721637
146	0xbd80c09f	-0.062867396
147	0x3e271540	0.163167
148	0x3d30c615	0.043157656
149	0xbbbf736f	-0.005842618
150	0xbdea6b96	-0.11446302
151	0x3caf3e47	0.021392
152	0xbc3eeed6	-0.011653623
153	0x3db19c8f	0.08672439
154	0xbddfc6fc	-0.10926625
155	0x3d92e279	0.071721025
156	0xbd994607	-0.0748406
157	0xbdce5651	-0.10075057
158	0xbd9261a7	-0.07147532
159	0x3d67f211	0.056627337
160	0xbdbda2f3	-0.09259596
161	0x3da0bb8c	0.07848272
162	0x3d95f624	0.07322338
163	0x3d2f1786	0.042747043
164	0x3ca8d4e3	0.020609325
165	0x3b4cf1ae	0.0031271982
166	0xbd5203a2	-0.051272996
167	0x3dd0a24e	0.10187207
168	0x3cb26890	0.021778375
169	0xbca3f505	-0.020014295
170	0x3d881c9e	0.06646083
171	0x3c11b703	0.008893731
172	0x3c76c29a	0.015061045
173	0xbcfd2156	-0.030899685
174	0xbd5a5eb8	-0.053312987
175	0x3babe09a	0.0052452805
176	0x3c13f989	0.009031662
177	0xbc1f583c	-0.009725627
178	0x3d579171	0.052628938
179	0x3e14a785	0.14517029
180	0x3d5134a5	0.051075596
181	0xbbc7ca49	-0.0060971123
182	0x3dc97bfe	0.09838103
183	0x3cb359a0	0.021893322
184	0xbdf79f89	-0.12090976
185	0xbd64081e	-0.055671804
186	0x3d81ff86	0.06347565
187	0x3d0f54c1	0.034992937
188	0xbdadbc21	-0.08483148
189	0xbd7f6204	-0.062349334
190	0x3c346dac	0.011012476
191	0xbd8341ff	-0.06409072
192	0x3d5594b2	0.05214376
193	0x3db62324	0.08893421
194	0x3e0cb9a0	0.13742685
195	0xbcbb4deb	-0.022864303
196	0xbc3cc2ad	-0.011521024
197	0x3b630418	0.0034639891
198	0x3d41ee9b	0.047346693
199	0x3d6cd864	0.057823554
200	0x3daea270	0.08527076
201	0xbd3cdb47	-0.046107557
202	0xbcc68e93	-0.024237907
203	0x3ada4810	0.0016653556
204	0xbd21db08	-0.039515525
205	0xbcd008d6	-0.025394838
206	0xbbf3d6de	-0.0074413856
207	0x3e0cfade	0.13767573
208	0xbcdef55e	-0.02721661
209	0xbc661c51	-0.014044837
210	0xbc29afd8	-0.010356866
211	0xbc1b80f9	-0.009491199
212	0xbcb8cc62	-0.022558395
213	0x3cdde385	0.027086029
214	0x3c7d433e	0.015457926
215	0x3dee0e53	0.11623826
216	0xbd47ddf3	-0.04879565
217	0x3d28799d	0.041131604
218	0xbcc7da4f	-0.02439609
219	0xbcb23e23	-0.021758145
220	0x3beee1c4	0.007290097
221	0xbd9cd0b1	-0.07656992
222	0x3dcefd5e	0.1010692
223	0xbd41bbfa	-0.04729841
224	0xbda754ec	-0.081704944
225	0x3b70b134	0.0036726715
226	0x3dce5db4	0.10076466
227	0xbe0bdc99	-0.1365837
228	0x3de9ca0c	0.114154905
229	0x3d208bba	0.039195754
230	0xbe017972	-0.12643984
231	0x3c89c8a1	0.0168193
232	0x3cc5c5ae	0.024142113
233	0x3d379415	0.044818956
234	0x3dba223f	0.09088563
235	0xbe4ccb5e	-0.19999453
236	0xbcbb9847	-0.02289976
237	0xbd3398ac	-0.04384677
238	0x3c97e3f3	0.018541312
239	0x3dd65ba1	0.104666956
240	0xbc460441	-0.012085975
241	0xbdfb8968	-0.122820675
242	0xbd8815ae	-0.0664476
243	0xbcbddcf9	-0.023176657
244	0xbd50da0e	-0.050989203
245	0xbd99e950	-0.07515204
246	0xbd82eb66	-0.06392555
247	0xbd995812	-0.07487501
248	0xbd60e7b2	-0.054908462
249	0xbd6c0e38	-0.057630748
250	0xbdb1b4cb	-0.08677062
251	0xbdaf223b	-0.08551451
252	0xbc93e4d5	-0.018053452
253	0x3d8502f8	0.06494707
254	0xbd5f29e9	-0.054483328
255	0xbd0a4c1f	-0.033764

sequential_1/lstm_1_2/while/lstm_cell_1/add_1/ReadVariableOp f4 [200]
0	0x3c306759	0.0107668275
1	0x3bc4554d	0.005991614
2	0xbcdb42f4	-0.026765324
3	0x3bf5e04d	0.0075035454
4	0xbb2883b7	-0.0025713274
5	0xbcba4029	-0.022735672
6	0xbc865041	-0.01639569
7	0xbcdb3fa2	-0.02676374
8	0xbc330cbc	-0.010928329
9	0x3d41bc5f	0.047298785
10	0xbaa43982	-0.0012529346
11	0x3cdd6154	0.027023949
12	0xbc8a03db	-0.016847542
13	0xbca79fca	-0.020461936
14	0xbd4b19aa	-0.049585022
15	0x3d9a8356	0.075445816
16	0x3c6d90c8	0.014499851
17	0x3b154371	0.0022775794
18	0x3d3f67ff	0.046730038
19	0xbd3e989b	-0.046532255
20	0x3cd9a981	0.026570084
21	0x3ddffec6	0.10937266
22	0x3bfbbd1a	0.007682455
23	0xbcae4fb4	-0.02127824
24	0xbc8cbcdc	-0.017179899
25	0x3c1ab4a4	0.009442482
26	0x3be0cdac	0.0068604555
27	0xbc9310d8	-0.017952368
28	0x3dfc219b	0.12311097
29	0xbaf6a4ea	-0.0018817459
30	0xbb769cf2	-0.0037630168
31	0xbb56b19a	-0.0032759667
32	0x3ae292be	0.0017286164
33	0xbba8f5f2	-0.005156272
34	0xbc4ffb84	-0.012694243
35	0x3bc06573	0.0058714687
36	0x3c886ea7	0.016654326
37	0x39f2a352	0.0004627952
38	0xbcba85eb	-0.022768935
39	0xbc1a9047	-0.009433812
40	0x3d1ca069	0.038238917
41	0x3bc2ac87	0.005940977
42	0xbd245cdb	-0.040127616
43	0xbc26dc63	-0.01018438
44	0xbc9ec72c	-0.019382082
45	0x3dfbc89c	0.122941226
46	0x3b230eff	0.0024880765
47	0xbd0d5cbc	-0.034512267
48	0x3c50eb44	0.012751404
49	0x3bd37e26	0.006454247
50	0x3f6c16f7	0.9222254
51	0x3f7e2bee	0.9928578
52	0x3f7b83ad	0.98247796
53	0x3f808c37	1.004279
54	0x3f6704a7	0.90241474
55	0x3f78b94a	0.9715773
56	0x3f71c91f	0.9444751
57	0x3f79c7b2	0.97570336
58	0x3f7c0f7d	0.98461133
59	0x3f6bad53	0.92061347
60	0x3f7f27d4	0.9967015
61	0x3f731ac0	0.9496269
62	0x3f7b527e	0.9817275
63	0x3f7bb2d7	0.9831976
64	0x3f778103	0.9668123
65	0x3f659445	0.89679366
66	0x3f73e070	0.9526434
67	0x3f7607d2	0.9610568
68	0x3f69e6bd	0.91367704
69	0x3f75b039	0.9597202
70	0x3f740977	0.9532694
71	0x3f5867fa	0.84533656
72	0x3f7ca3d1	0.98687464
73	0x3f7c09c2	0.9845239
74	0x3f77f636	0.96860063
75	0x3f6a51fd	0.91531354
76	0x3f7da118	0.99073935
77	0x3f7962d0	0.974164
78	0x3f52b71c	0.8231065
79	0x3f78bbea	0.97161734
80	0x3f7a2270	0.977088
81	0x3f7b4b3b	0.9816167
82	0x3f7aadba	0.97921336
83	0x3f7e2a88	0.9928365
84	0x3f79e043	0.9760782
85	0x3f79469b	0.9737336
86	0x3f6b7096	0.9196867
87	0x3f7e1c92	0.99262345
88	0x3f7845bd	0.9698141
89	0x3f7c30bf	0.9851188
90	0x3f611bc3	0.87932986
91	0x3f7568e0	0.9586315
92	0x3f6d1bcb	0.92620534
93	0x3f7bebc6	0.98406637
94	0x3f7b2521	0.9810353
95	0x3f52db00	0.8236542
96	0x3f7e4ba4	0.9933417
97	0x3f73f0a7	0.9528908
98	0x3f781719	0.96910244
99	0x3f79126a	0.9729372
100	0xbc7d0983	-0.015444162
101	0x3cc2863a	0.023745645
102	0x3c82b347	0.015954627
103	0x3ce79479	0.02826904
104	0xbc3fb98b	-0.011701952
105	0xbad9e872	-0.001662506
106	0xbc311f23	-0.010810646
107	0x3c245afe	0.01003146
108	0x3b793ed6	0.0038031838
109	0xba69e5d3	-0.0008922491
110	0xbcb6a7fd	-0.0222969
111	0xbcbf1941	-0.023327472
112	0x3bb12de6	0.005407083
113	0xbc0dab61	-0.008646817
114	0xbc33da60	-0.010977358
115	0xbcb87f8a	-0.022521753
116	0xbcc5b8a4	-0.024135895
117	0x3d1091bc	0.035295233
118	0x3c5b8d3c	0.013400372
119	0xbc05bda0	-0.008162886
120	0x3be63559	0.0070254025
121	0xbc1b0e33	-0.009463835
122	0x3c8103ba	0.015748847
123	0xbc6eee57	-0.014583192
124	0xbc248525	-0.01004151
125	0x3c717611	0.014737622
126	0x3cc19d51	0.023634585
127	0xbc19a0ee	-0.0093767475
128	0x3be88d2d	0.0070969076
129	0xbc02fa07	-0.0079941815
130	0x3c8f3940	0.017483354
131	0x3c89f422	0.016840044
132	0x3c74d04f	0.014942243
133	0xbcf080bd	-0.029358262
134	0xbc1583d2	-0.009125667
135	0x3cc3f861	0.023922147
136	0x3c35ef60	0.011104435
137	0xbc4d73e0	-0.012539834
138	0x3c7a7d23	0.015288624
139	0xbc6b98e9	-0.014379718
140	0xbc17f8bb	-0.009275611
141	0xbb6ee067	-0.0036449672
142	0x3cad4374	0.021150328
143	0x3d00114a	0.031266488
144	0xbb57217f	-0.0032826362
145	0x3be061f4	0.0068476144
146	0xbcd8d65a	-0.026469398
147	0xbc567219	-0.013088726
148	0xbbace47c	-0.005276261
149	0x3ccb9c6e	0.024854865
150	0x3a5e4e29	0.00084802747
151	0x3ba45c41	0.0050158803
152	0xbcc7d1d4	-0.024392046
153	0x3be88d8d	0.0070969523
154	0xbb995e29	-0.004680414
155	0xbcb7e91f	-0.022450028
156	0xbc7929f8	-0.01520776
157	0xbcd5694d	-0.026051188
158	0xbc364cd4	-0.011126716
159	0x3d407648	0.0469878
160	0xbb03a847	-0.0020089315
161	0x3cda0083	0.026611572
162	0xbc946f7d	-0.018119568
163	0xbca2e8b5	-0.019886354
164	0xbd4b7ad4	-0.049677685
165	0x3d90e318	0.07074565
166	0x3c60a5fe	0.013711451
167	0x3b4d10d6	0.0031290553
168	0x3d35c5a6	0.044377945
169	0xbd37a83a	-0.044838168
170	0x3cbf59c9	0.023358243
171	0x3dd04f2a	0.10171349
172	0x3bd2d281	0.0064337854
173	0xbcbaae52	-0.0227882
174	0xbc8db60b	-0.017298719
175	0x3bc824ad	0.0061078877
176	0x3bd04e05	0.006356957
177	0xbc93b173	-0.01802895
178	0x3df3a0cf	0.11895906
179	0xbb1c1fa2	-0.0023822566
180	0xbb732468	-0.0037100557
181	0xbb7663f2	-0.0037596193
182	0x3b0acadf	0.002117805
183	0xbc01b103	-0.007915738
184	0xbc3c5fc9	-0.011497446
185	0x3bce84f1	0.006302469
186	0x3c8c3b55	0.017118135
187	0xba6c41eb	-0.0009012508
188	0xbcb5470c	-0.022128604
189	0xbc3502df	-0.011048048
190	0x3d1ad2e2	0.03779877
191	0x3ba41df8	0.0050084554
192	0xbd2344a3	-0.03986038
193	0xbc238eab	-0.009982745
194	0xbc9e4e0f	-0.01932433
195	0x3df13ece	0.11779557
196	0x3ab0b2ef	0.0013481061
197	0xbd025341	-0.03181768
198	0x3c38c2f0	0.0112769455
199	0x3b97b35b	0.004629535
